…
==============================================================================================
Layer (type:depth-idx)                        Input Shape               Output Shape              Param #                   Param %                   Kernel Shape              Mult-Adds                 Trainable
============================================================================================================================================================================================================================
CNNHARModel                                   [1, 3, 336, 336]          [1, 15]                   --                             --                   --                        --                        False
├─Sequential: 1-1                             [1, 3, 336, 336]          [1, 512, 1, 1]            --                             --                   --                        --                        False
│    └─Conv2d: 2-1                            [1, 3, 336, 336]          [1, 64, 168, 168]         (9,408)                     0.08%                   [7, 7]                    265,531,392               False
│    └─BatchNorm2d: 2-2                       [1, 64, 168, 168]         [1, 64, 168, 168]         (128)                       0.00%                   --                        128                       False
│    └─ReLU: 2-3                              [1, 64, 168, 168]         [1, 64, 168, 168]         --                             --                   --                        --                        --
│    └─MaxPool2d: 2-4                         [1, 64, 168, 168]         [1, 64, 84, 84]           --                             --                   3                         --                        --
│    └─Sequential: 2-5                        [1, 64, 84, 84]           [1, 64, 84, 84]           --                             --                   --                        --                        False
│    │    └─BasicBlock: 3-1                   [1, 64, 84, 84]           [1, 64, 84, 84]           (73,984)                    0.65%                   --                        520,225,024               False
│    │    └─BasicBlock: 3-2                   [1, 64, 84, 84]           [1, 64, 84, 84]           (73,984)                    0.65%                   --                        520,225,024               False
│    └─Sequential: 2-6                        [1, 64, 84, 84]           [1, 128, 42, 42]          --                             --                   --                        --                        False
│    │    └─BasicBlock: 3-3                   [1, 64, 84, 84]           [1, 128, 42, 42]          (230,144)                   2.01%                   --                        404,620,032               False
│    │    └─BasicBlock: 3-4                   [1, 128, 42, 42]          [1, 128, 42, 42]          (295,424)                   2.58%                   --                        520,225,280               False
│    └─Sequential: 2-7                        [1, 128, 42, 42]          [1, 256, 21, 21]          --                             --                   --                        --                        False
│    │    └─BasicBlock: 3-5                   [1, 128, 42, 42]          [1, 256, 21, 21]          (919,040)                   8.03%                   --                        404,620,800               False
│    │    └─BasicBlock: 3-6                   [1, 256, 21, 21]          [1, 256, 21, 21]          (1,180,672)                10.31%                   --                        520,225,792               False
│    └─Sequential: 2-8                        [1, 256, 21, 21]          [1, 512, 11, 11]          --                             --                   --                        --                        False
│    │    └─BasicBlock: 3-7                   [1, 256, 21, 21]          [1, 512, 11, 11]          (3,673,088)                32.09%                   --                        444,075,008               False
│    │    └─BasicBlock: 3-8                   [1, 512, 11, 11]          [1, 512, 11, 11]          (4,720,640)                41.24%                   --                        570,951,680               False
│    └─AdaptiveAvgPool2d: 2-9                 [1, 512, 11, 11]          [1, 512, 1, 1]            --                             --                   --                        --                        --
├─Sequential: 1-2                             [1, 512]                  [1, 15]                   --                             --                   --                        --                        False
│    └─Dropout: 2-10                          [1, 512]                  [1, 512]                  --                             --                   --                        --                        --
│    └─Linear: 2-11                           [1, 512]                  [1, 512]                  (262,656)                   2.29%                   --                        262,656                   False
│    └─ReLU: 2-12                             [1, 512]                  [1, 512]                  --                             --                   --                        --                        --
│    └─Dropout: 2-13                          [1, 512]                  [1, 512]                  --                             --                   --                        --                        --
│    └─Linear: 2-14                           [1, 512]                  [1, 15]                   (7,695)                     0.07%                   --                        7,695                     False
============================================================================================================================================================================================================================
Total params: 11,446,863
Trainable params: 0
Non-trainable params: 11,446,863
Total mult-adds (Units.GIGABYTES): 4.17
…
